Model: "functional"
┏━━━━━━━━━━━━━━━━━━━━━━━━━━━━━━━┳━━━━━━━━━━━━━━━━━━━━━━━━━━━┳━━━━━━━━━━━━━━━━━┳━━━━━━━━━━━━━━━━━━━━━━━━━━━━┓
┃ Layer (type)                  ┃ Output Shape              ┃         Param # ┃ Connected to               ┃
┡━━━━━━━━━━━━━━━━━━━━━━━━━━━━━━━╇━━━━━━━━━━━━━━━━━━━━━━━━━━━╇━━━━━━━━━━━━━━━━━╇━━━━━━━━━━━━━━━━━━━━━━━━━━━━┩
│ input_layer (InputLayer)      │ (None, 256, 256, 1)       │               0 │ -                          │
├───────────────────────────────┼───────────────────────────┼─────────────────┼────────────────────────────┤
│ conv2d (Conv2D)               │ (None, 128, 128, 32)      │           1,600 │ input_layer[0][0]          │
├───────────────────────────────┼───────────────────────────┼─────────────────┼────────────────────────────┤
│ batch_normalization           │ (None, 128, 128, 32)      │             128 │ conv2d[0][0]               │
│ (BatchNormalization)          │                           │                 │                            │
├───────────────────────────────┼───────────────────────────┼─────────────────┼────────────────────────────┤
│ activation (Activation)       │ (None, 128, 128, 32)      │               0 │ batch_normalization[0][0]  │
├───────────────────────────────┼───────────────────────────┼─────────────────┼────────────────────────────┤
│ max_pooling2d (MaxPooling2D)  │ (None, 64, 64, 32)        │               0 │ activation[0][0]           │
├───────────────────────────────┼───────────────────────────┼─────────────────┼────────────────────────────┤
│ conv2d_1 (Conv2D)             │ (None, 64, 64, 24)        │           6,936 │ max_pooling2d[0][0]        │
├───────────────────────────────┼───────────────────────────┼─────────────────┼────────────────────────────┤
│ batch_normalization_1         │ (None, 64, 64, 24)        │              96 │ conv2d_1[0][0]             │
│ (BatchNormalization)          │                           │                 │                            │
├───────────────────────────────┼───────────────────────────┼─────────────────┼────────────────────────────┤
│ activation_1 (Activation)     │ (None, 64, 64, 24)        │               0 │ batch_normalization_1[0][… │
├───────────────────────────────┼───────────────────────────┼─────────────────┼────────────────────────────┤
│ conv2d_2 (Conv2D)             │ (None, 64, 64, 24)        │           5,208 │ activation_1[0][0]         │
├───────────────────────────────┼───────────────────────────┼─────────────────┼────────────────────────────┤
│ conv2d_3 (Conv2D)             │ (None, 64, 64, 24)        │             792 │ max_pooling2d[0][0]        │
├───────────────────────────────┼───────────────────────────┼─────────────────┼────────────────────────────┤
│ batch_normalization_2         │ (None, 64, 64, 24)        │              96 │ conv2d_2[0][0]             │
│ (BatchNormalization)          │                           │                 │                            │
├───────────────────────────────┼───────────────────────────┼─────────────────┼────────────────────────────┤
│ batch_normalization_3         │ (None, 64, 64, 24)        │              96 │ conv2d_3[0][0]             │
│ (BatchNormalization)          │                           │                 │                            │
├───────────────────────────────┼───────────────────────────┼─────────────────┼────────────────────────────┤
│ add (Add)                     │ (None, 64, 64, 24)        │               0 │ batch_normalization_2[0][… │
│                               │                           │                 │ batch_normalization_3[0][… │
├───────────────────────────────┼───────────────────────────┼─────────────────┼────────────────────────────┤
│ activation_2 (Activation)     │ (None, 64, 64, 24)        │               0 │ add[0][0]                  │
├───────────────────────────────┼───────────────────────────┼─────────────────┼────────────────────────────┤
│ global_average_pooling2d      │ (None, 24)                │               0 │ activation_2[0][0]         │
│ (GlobalAveragePooling2D)      │                           │                 │                            │
├───────────────────────────────┼───────────────────────────┼─────────────────┼────────────────────────────┤
│ reshape (Reshape)             │ (None, 1, 1, 24)          │               0 │ global_average_pooling2d[… │
├───────────────────────────────┼───────────────────────────┼─────────────────┼────────────────────────────┤
│ dense (Dense)                 │ (None, 1, 1, 1)           │              25 │ reshape[0][0]              │
├───────────────────────────────┼───────────────────────────┼─────────────────┼────────────────────────────┤
│ dense_1 (Dense)               │ (None, 1, 1, 24)          │              48 │ dense[0][0]                │
├───────────────────────────────┼───────────────────────────┼─────────────────┼────────────────────────────┤
│ multiply (Multiply)           │ (None, 64, 64, 24)        │               0 │ activation_2[0][0],        │
│                               │                           │                 │ dense_1[0][0]              │
├───────────────────────────────┼───────────────────────────┼─────────────────┼────────────────────────────┤
│ dropout (Dropout)             │ (None, 64, 64, 24)        │               0 │ multiply[0][0]             │
├───────────────────────────────┼───────────────────────────┼─────────────────┼────────────────────────────┤
│ conv2d_4 (Conv2D)             │ (None, 32, 32, 48)        │          10,416 │ dropout[0][0]              │
├───────────────────────────────┼───────────────────────────┼─────────────────┼────────────────────────────┤
│ batch_normalization_4         │ (None, 32, 32, 48)        │             192 │ conv2d_4[0][0]             │
│ (BatchNormalization)          │                           │                 │                            │
├───────────────────────────────┼───────────────────────────┼─────────────────┼────────────────────────────┤
│ activation_3 (Activation)     │ (None, 32, 32, 48)        │               0 │ batch_normalization_4[0][… │
├───────────────────────────────┼───────────────────────────┼─────────────────┼────────────────────────────┤
│ global_average_pooling2d_1    │ (None, 48)                │               0 │ activation_3[0][0]         │
│ (GlobalAveragePooling2D)      │                           │                 │                            │
├───────────────────────────────┼───────────────────────────┼─────────────────┼────────────────────────────┤
│ reshape_1 (Reshape)           │ (None, 1, 1, 48)          │               0 │ global_average_pooling2d_… │
├───────────────────────────────┼───────────────────────────┼─────────────────┼────────────────────────────┤
│ dense_2 (Dense)               │ (None, 1, 1, 3)           │             147 │ reshape_1[0][0]            │
├───────────────────────────────┼───────────────────────────┼─────────────────┼────────────────────────────┤
│ dense_3 (Dense)               │ (None, 1, 1, 48)          │             192 │ dense_2[0][0]              │
├───────────────────────────────┼───────────────────────────┼─────────────────┼────────────────────────────┤
│ multiply_1 (Multiply)         │ (None, 32, 32, 48)        │               0 │ activation_3[0][0],        │
│                               │                           │                 │ dense_3[0][0]              │
├───────────────────────────────┼───────────────────────────┼─────────────────┼────────────────────────────┤
│ conv2d_5 (Conv2D)             │ (None, 32, 32, 48)        │          20,784 │ multiply_1[0][0]           │
├───────────────────────────────┼───────────────────────────┼─────────────────┼────────────────────────────┤
│ batch_normalization_5         │ (None, 32, 32, 48)        │             192 │ conv2d_5[0][0]             │
│ (BatchNormalization)          │                           │                 │                            │
├───────────────────────────────┼───────────────────────────┼─────────────────┼────────────────────────────┤
│ activation_4 (Activation)     │ (None, 32, 32, 48)        │               0 │ batch_normalization_5[0][… │
├───────────────────────────────┼───────────────────────────┼─────────────────┼────────────────────────────┤
│ conv2d_6 (Conv2D)             │ (None, 32, 32, 48)        │          20,784 │ activation_4[0][0]         │
├───────────────────────────────┼───────────────────────────┼─────────────────┼────────────────────────────┤
│ batch_normalization_6         │ (None, 32, 32, 48)        │             192 │ conv2d_6[0][0]             │
│ (BatchNormalization)          │                           │                 │                            │
├───────────────────────────────┼───────────────────────────┼─────────────────┼────────────────────────────┤
│ add_1 (Add)                   │ (None, 32, 32, 48)        │               0 │ batch_normalization_6[0][… │
│                               │                           │                 │ multiply_1[0][0]           │
├───────────────────────────────┼───────────────────────────┼─────────────────┼────────────────────────────┤
│ activation_5 (Activation)     │ (None, 32, 32, 48)        │               0 │ add_1[0][0]                │
├───────────────────────────────┼───────────────────────────┼─────────────────┼────────────────────────────┤
│ global_average_pooling2d_2    │ (None, 48)                │               0 │ activation_5[0][0]         │
│ (GlobalAveragePooling2D)      │                           │                 │                            │
├───────────────────────────────┼───────────────────────────┼─────────────────┼────────────────────────────┤
│ reshape_2 (Reshape)           │ (None, 1, 1, 48)          │               0 │ global_average_pooling2d_… │
├───────────────────────────────┼───────────────────────────┼─────────────────┼────────────────────────────┤
│ dense_4 (Dense)               │ (None, 1, 1, 3)           │             147 │ reshape_2[0][0]            │
├───────────────────────────────┼───────────────────────────┼─────────────────┼────────────────────────────┤
│ dense_5 (Dense)               │ (None, 1, 1, 48)          │             192 │ dense_4[0][0]              │
├───────────────────────────────┼───────────────────────────┼─────────────────┼────────────────────────────┤
│ multiply_2 (Multiply)         │ (None, 32, 32, 48)        │               0 │ activation_5[0][0],        │
│                               │                           │                 │ dense_5[0][0]              │
├───────────────────────────────┼───────────────────────────┼─────────────────┼────────────────────────────┤
│ dropout_1 (Dropout)           │ (None, 32, 32, 48)        │               0 │ multiply_2[0][0]           │
├───────────────────────────────┼───────────────────────────┼─────────────────┼────────────────────────────┤
│ conv2d_7 (Conv2D)             │ (None, 16, 16, 96)        │          41,568 │ dropout_1[0][0]            │
├───────────────────────────────┼───────────────────────────┼─────────────────┼────────────────────────────┤
│ batch_normalization_7         │ (None, 16, 16, 96)        │             384 │ conv2d_7[0][0]             │
│ (BatchNormalization)          │                           │                 │                            │
├───────────────────────────────┼───────────────────────────┼─────────────────┼────────────────────────────┤
│ activation_6 (Activation)     │ (None, 16, 16, 96)        │               0 │ batch_normalization_7[0][… │
├───────────────────────────────┼───────────────────────────┼─────────────────┼────────────────────────────┤
│ global_average_pooling2d_3    │ (None, 96)                │               0 │ activation_6[0][0]         │
│ (GlobalAveragePooling2D)      │                           │                 │                            │
├───────────────────────────────┼───────────────────────────┼─────────────────┼────────────────────────────┤
│ reshape_3 (Reshape)           │ (None, 1, 1, 96)          │               0 │ global_average_pooling2d_… │
├───────────────────────────────┼───────────────────────────┼─────────────────┼────────────────────────────┤
│ dense_6 (Dense)               │ (None, 1, 1, 6)           │             582 │ reshape_3[0][0]            │
├───────────────────────────────┼───────────────────────────┼─────────────────┼────────────────────────────┤
│ dense_7 (Dense)               │ (None, 1, 1, 96)          │             672 │ dense_6[0][0]              │
├───────────────────────────────┼───────────────────────────┼─────────────────┼────────────────────────────┤
│ multiply_3 (Multiply)         │ (None, 16, 16, 96)        │               0 │ activation_6[0][0],        │
│                               │                           │                 │ dense_7[0][0]              │
├───────────────────────────────┼───────────────────────────┼─────────────────┼────────────────────────────┤
│ conv2d_8 (Conv2D)             │ (None, 16, 16, 96)        │          83,040 │ multiply_3[0][0]           │
├───────────────────────────────┼───────────────────────────┼─────────────────┼────────────────────────────┤
│ batch_normalization_8         │ (None, 16, 16, 96)        │             384 │ conv2d_8[0][0]             │
│ (BatchNormalization)          │                           │                 │                            │
├───────────────────────────────┼───────────────────────────┼─────────────────┼────────────────────────────┤
│ activation_7 (Activation)     │ (None, 16, 16, 96)        │               0 │ batch_normalization_8[0][… │
├───────────────────────────────┼───────────────────────────┼─────────────────┼────────────────────────────┤
│ conv2d_9 (Conv2D)             │ (None, 16, 16, 96)        │          83,040 │ activation_7[0][0]         │
├───────────────────────────────┼───────────────────────────┼─────────────────┼────────────────────────────┤
│ batch_normalization_9         │ (None, 16, 16, 96)        │             384 │ conv2d_9[0][0]             │
│ (BatchNormalization)          │                           │                 │                            │
├───────────────────────────────┼───────────────────────────┼─────────────────┼────────────────────────────┤
│ add_2 (Add)                   │ (None, 16, 16, 96)        │               0 │ batch_normalization_9[0][… │
│                               │                           │                 │ multiply_3[0][0]           │
├───────────────────────────────┼───────────────────────────┼─────────────────┼────────────────────────────┤
│ activation_8 (Activation)     │ (None, 16, 16, 96)        │               0 │ add_2[0][0]                │
├───────────────────────────────┼───────────────────────────┼─────────────────┼────────────────────────────┤
│ global_average_pooling2d_4    │ (None, 96)                │               0 │ activation_8[0][0]         │
│ (GlobalAveragePooling2D)      │                           │                 │                            │
├───────────────────────────────┼───────────────────────────┼─────────────────┼────────────────────────────┤
│ reshape_4 (Reshape)           │ (None, 1, 1, 96)          │               0 │ global_average_pooling2d_… │
├───────────────────────────────┼───────────────────────────┼─────────────────┼────────────────────────────┤
│ dense_8 (Dense)               │ (None, 1, 1, 6)           │             582 │ reshape_4[0][0]            │
├───────────────────────────────┼───────────────────────────┼─────────────────┼────────────────────────────┤
│ dense_9 (Dense)               │ (None, 1, 1, 96)          │             672 │ dense_8[0][0]              │
├───────────────────────────────┼───────────────────────────┼─────────────────┼────────────────────────────┤
│ multiply_4 (Multiply)         │ (None, 16, 16, 96)        │               0 │ activation_8[0][0],        │
│                               │                           │                 │ dense_9[0][0]              │
├───────────────────────────────┼───────────────────────────┼─────────────────┼────────────────────────────┤
│ dropout_2 (Dropout)           │ (None, 16, 16, 96)        │               0 │ multiply_4[0][0]           │
├───────────────────────────────┼───────────────────────────┼─────────────────┼────────────────────────────┤
│ conv2d_10 (Conv2D)            │ (None, 8, 8, 192)         │         166,080 │ dropout_2[0][0]            │
├───────────────────────────────┼───────────────────────────┼─────────────────┼────────────────────────────┤
│ batch_normalization_10        │ (None, 8, 8, 192)         │             768 │ conv2d_10[0][0]            │
│ (BatchNormalization)          │                           │                 │                            │
├───────────────────────────────┼───────────────────────────┼─────────────────┼────────────────────────────┤
│ activation_9 (Activation)     │ (None, 8, 8, 192)         │               0 │ batch_normalization_10[0]… │
├───────────────────────────────┼───────────────────────────┼─────────────────┼────────────────────────────┤
│ global_average_pooling2d_5    │ (None, 192)               │               0 │ activation_9[0][0]         │
│ (GlobalAveragePooling2D)      │                           │                 │                            │
├───────────────────────────────┼───────────────────────────┼─────────────────┼────────────────────────────┤
│ reshape_5 (Reshape)           │ (None, 1, 1, 192)         │               0 │ global_average_pooling2d_… │
├───────────────────────────────┼───────────────────────────┼─────────────────┼────────────────────────────┤
│ dense_10 (Dense)              │ (None, 1, 1, 12)          │           2,316 │ reshape_5[0][0]            │
├───────────────────────────────┼───────────────────────────┼─────────────────┼────────────────────────────┤
│ dense_11 (Dense)              │ (None, 1, 1, 192)         │           2,496 │ dense_10[0][0]             │
├───────────────────────────────┼───────────────────────────┼─────────────────┼────────────────────────────┤
│ multiply_5 (Multiply)         │ (None, 8, 8, 192)         │               0 │ activation_9[0][0],        │
│                               │                           │                 │ dense_11[0][0]             │
├───────────────────────────────┼───────────────────────────┼─────────────────┼────────────────────────────┤
│ conv2d_11 (Conv2D)            │ (None, 8, 8, 192)         │         331,968 │ multiply_5[0][0]           │
├───────────────────────────────┼───────────────────────────┼─────────────────┼────────────────────────────┤
│ batch_normalization_11        │ (None, 8, 8, 192)         │             768 │ conv2d_11[0][0]            │
│ (BatchNormalization)          │                           │                 │                            │
├───────────────────────────────┼───────────────────────────┼─────────────────┼────────────────────────────┤
│ activation_10 (Activation)    │ (None, 8, 8, 192)         │               0 │ batch_normalization_11[0]… │
├───────────────────────────────┼───────────────────────────┼─────────────────┼────────────────────────────┤
│ conv2d_12 (Conv2D)            │ (None, 8, 8, 192)         │         331,968 │ activation_10[0][0]        │
├───────────────────────────────┼───────────────────────────┼─────────────────┼────────────────────────────┤
│ batch_normalization_12        │ (None, 8, 8, 192)         │             768 │ conv2d_12[0][0]            │
│ (BatchNormalization)          │                           │                 │                            │
├───────────────────────────────┼───────────────────────────┼─────────────────┼────────────────────────────┤
│ add_3 (Add)                   │ (None, 8, 8, 192)         │               0 │ batch_normalization_12[0]… │
│                               │                           │                 │ multiply_5[0][0]           │
├───────────────────────────────┼───────────────────────────┼─────────────────┼────────────────────────────┤
│ activation_11 (Activation)    │ (None, 8, 8, 192)         │               0 │ add_3[0][0]                │
├───────────────────────────────┼───────────────────────────┼─────────────────┼────────────────────────────┤
│ global_average_pooling2d_6    │ (None, 192)               │               0 │ activation_11[0][0]        │
│ (GlobalAveragePooling2D)      │                           │                 │                            │
├───────────────────────────────┼───────────────────────────┼─────────────────┼────────────────────────────┤
│ reshape_6 (Reshape)           │ (None, 1, 1, 192)         │               0 │ global_average_pooling2d_… │
├───────────────────────────────┼───────────────────────────┼─────────────────┼────────────────────────────┤
│ dense_12 (Dense)              │ (None, 1, 1, 12)          │           2,316 │ reshape_6[0][0]            │
├───────────────────────────────┼───────────────────────────┼─────────────────┼────────────────────────────┤
│ dense_13 (Dense)              │ (None, 1, 1, 192)         │           2,496 │ dense_12[0][0]             │
├───────────────────────────────┼───────────────────────────┼─────────────────┼────────────────────────────┤
│ multiply_6 (Multiply)         │ (None, 8, 8, 192)         │               0 │ activation_11[0][0],       │
│                               │                           │                 │ dense_13[0][0]             │
├───────────────────────────────┼───────────────────────────┼─────────────────┼────────────────────────────┤
│ dropout_3 (Dropout)           │ (None, 8, 8, 192)         │               0 │ multiply_6[0][0]           │
├───────────────────────────────┼───────────────────────────┼─────────────────┼────────────────────────────┤
│ global_average_pooling2d_7    │ (None, 192)               │               0 │ dropout_3[0][0]            │
│ (GlobalAveragePooling2D)      │                           │                 │                            │
├───────────────────────────────┼───────────────────────────┼─────────────────┼────────────────────────────┤
│ dropout_4 (Dropout)           │ (None, 192)               │               0 │ global_average_pooling2d_… │
├───────────────────────────────┼───────────────────────────┼─────────────────┼────────────────────────────┤
│ dense_14 (Dense)              │ (None, 1)                 │             193 │ dropout_4[0][0]            │
└───────────────────────────────┴───────────────────────────┴─────────────────┴────────────────────────────┘
 Total params: 1,121,708 (4.28 MB)
 Trainable params: 1,119,484 (4.27 MB)
 Non-trainable params: 2,224 (8.69 KB)

